…
   macro avg       0.88      0.92      0.90     22544
weighted avg       0.94      0.94      0.94     22544

Confusion Matrix:
[[8962  215  190   22  322]
 [   4 2227  154    6   30]
 [  29   66 7325   21   17]
 [   9    2    0  176   13]
 [ 170   22   17   20 2525]]
Model Summary:
__________________________________________________________________________________________________
Layer (type)                    Output Shape         Param #     Connected to                     
==================================================================================================
input_1 (InputLayer)            (None, 11, 11, 1)    0                                            
__________________________________________________________________________________________________
conv2d_1 (Conv2D)               (None, 11, 11, 4)    40          input_1[0][0]                    
__________________________________________________________________________________________________
conv2d_2 (Conv2D)               (None, 11, 11, 4)    148         conv2d_1[0][0]                   
__________________________________________________________________________________________________
max_pooling2d_1 (MaxPooling2D)  (None, 5, 5, 4)      0           conv2d_2[0][0]                   
__________________________________________________________________________________________________
conv2d_3 (Conv2D)               (None, 5, 5, 16)     592         max_pooling2d_1[0][0]            
__________________________________________________________________________________________________
conv2d_4 (Conv2D)               (None, 5, 5, 16)     2320        conv2d_3[0][0]                   
__________________________________________________________________________________________________
max_pooling2d_2 (MaxPooling2D)  (None, 2, 2, 16)     0           conv2d_4[0][0]                   
__________________________________________________________________________________________________
conv2d_5 (Conv2D)               (None, 2, 2, 64)     9280        max_pooling2d_2[0][0]            
__________________________________________________________________________________________________
conv2d_6 (Conv2D)               (None, 2, 2, 64)     36928       conv2d_5[0][0]                   
__________________________________________________________________________________________________
max_pooling2d_3 (MaxPooling2D)  (None, 1, 1, 64)     0           conv2d_6[0][0]                   
__________________________________________________________________________________________________
conv2d_7 (Conv2D)               (None, 1, 1, 121)    69817       max_pooling2d_3[0][0]            
__________________________________________________________________________________________________
conv2d_8 (Conv2D)               (None, 1, 1, 121)    131890      conv2d_7[0][0]                   
__________________________________________________________________________________________________
flatten_1 (Flatten)             (None, 121)          0           conv2d_8[0][0]                   
__________________________________________________________________________________________________
flatten_2 (Flatten)             (None, 121)          0           input_1[0][0]                    
__________________________________________________________________________________________________
add_1 (Add)                     (None, 121)          0           flatten_1[0][0]                  
                                                                 flatten_2[0][0]                  
==================================================================================================
Total params: 251,015
Trainable params: 251,015
Non-trainable params: 0
__________________________________________________________________________________________________
…
