…
pgetattack.': {'train': 0, 'test': 2}, 'named.': {'train': 0, 'test': 0}, 'xlock.': {'train': 0, 'test': 0}, 'xsnoop.': {'train': 0, 'test': 0}, 'sendmail.': {'train': 0, 'test': 0}, 'worm.': {'train': 0, 'test': 0}, 'snmpguess.': {'train': 0, 'test': 2}}
Model Summary:
__________________________________________________________________________________________________
Layer (type)                    Output Shape         Param #     Connected to                     
==================================================================================================
input_5 (InputLayer)            (None, 11, 11, 1)    0                                            
__________________________________________________________________________________________________
conv2d_33 (Conv2D)              (None, 11, 11, 4)    40          input_5[0][0]                    
__________________________________________________________________________________________________
conv2d_34 (Conv2D)              (None, 11, 11, 4)    148         conv2d_33[0][0]                  
__________________________________________________________________________________________________
max_pooling2d_13 (MaxPooling2D) (None, 5, 5, 4)      0           conv2d_34[0][0]                  
__________________________________________________________________________________________________
conv2d_35 (Conv2D)              (None, 5, 5, 12)     444         max_pooling2d_13[0][0]           
__________________________________________________________________________________________________
conv2d_36 (Conv2D)              (None, 5, 5, 12)     1308        conv2d_35[0][0]                  
__________________________________________________________________________________________________
max_pooling2d_14 (MaxPooling2D) (None, 2, 2, 12)     0           conv2d_36[0][0]                  
__________________________________________________________________________________________________
conv2d_37 (Conv2D)              (None, 2, 2, 36)     3924        max_pooling2d_14[0][0]           
__________________________________________________________________________________________________
conv2d_38 (Conv2D)              (None, 2, 2, 36)     11700       conv2d_37[0][0]                  
__________________________________________________________________________________________________
max_pooling2d_15 (MaxPooling2D) (None, 1, 1, 36)     0           conv2d_38[0][0]                  
__________________________________________________________________________________________________
conv2d_39 (Conv2D)              (None, 1, 1, 121)    39325       max_pooling2d_15[0][0]           
__________________________________________________________________________________________________
conv2d_40 (Conv2D)              (None, 1, 1, 121)    131890      conv2d_39[0][0]                  
__________________________________________________________________________________________________
flatten_9 (Flatten)             (None, 121)          0           conv2d_40[0][0]                  
__________________________________________________________________________________________________
flatten_10 (Flatten)            (None, 121)          0           input_5[0][0]                    
__________________________________________________________________________________________________
add_5 (Add)                     (None, 121)          0           flatten_9[0][0]                  
                                                                 flatten_10[0][0]                 
==================================================================================================
Total params: 188,779
Trainable params: 188,779
Non-trainable params: 0
__________________________________________________________________________________________________
…
