…
[250, 0], 'multihop.': [0, 2], 'phf.': [0, 0], 'spy.': [0, 0], 'warezclient.': [250, 0], 'warezmaster.': [250, 2], 'snmpgetattack.': [0, 2], 'named.': [0, 0], 'xlock.': [0, 0], 'xsnoop.': [0, 0], 'sendmail.': [0, 0], 'worm.': [0, 0], 'snmpguess.': [0, 2]}
Model Summary:
__________________________________________________________________________________________________
Layer (type)                    Output Shape         Param #     Connected to                     
==================================================================================================
input_1 (InputLayer)            (None, 11, 11, 1)    0                                            
__________________________________________________________________________________________________
conv2d_1 (Conv2D)               (None, 11, 11, 4)    40          input_1[0][0]                    
__________________________________________________________________________________________________
max_pooling2d_1 (MaxPooling2D)  (None, 5, 5, 4)      0           conv2d_1[0][0]                   
__________________________________________________________________________________________________
conv2d_2 (Conv2D)               (None, 5, 5, 16)     592         max_pooling2d_1[0][0]            
__________________________________________________________________________________________________
max_pooling2d_2 (MaxPooling2D)  (None, 2, 2, 16)     0           conv2d_2[0][0]                   
__________________________________________________________________________________________________
conv2d_3 (Conv2D)               (None, 2, 2, 64)     9280        max_pooling2d_2[0][0]            
__________________________________________________________________________________________________
max_pooling2d_3 (MaxPooling2D)  (None, 1, 1, 64)     0           conv2d_3[0][0]                   
__________________________________________________________________________________________________
conv2d_4 (Conv2D)               (None, 1, 1, 121)    69817       max_pooling2d_3[0][0]            
__________________________________________________________________________________________________
flatten_1 (Flatten)             (None, 121)          0           conv2d_4[0][0]                   
__________________________________________________________________________________________________
flatten_2 (Flatten)             (None, 121)          0           input_1[0][0]                    
__________________________________________________________________________________________________
add_1 (Add)                     (None, 121)          0           flatten_1[0][0]                  
                                                                 flatten_2[0][0]                  
==================================================================================================
Total params: 79,729
Trainable params: 79,729
Non-trainable params: 0
__________________________________________________________________________________________________
…
