…
00, 0], 'multihop.': [0, 3], 'phf.': [0, 0], 'spy.': [0, 0], 'warezclient.': [3000, 0], 'warezmaster.': [3000, 3], 'snmpgetattack.': [0, 3], 'named.': [0, 0], 'xlock.': [0, 0], 'xsnoop.': [0, 0], 'sendmail.': [0, 0], 'worm.': [0, 0], 'snmpguess.': [0, 3]}
Model Summary:
__________________________________________________________________________________________________
Layer (type)                    Output Shape         Param #     Connected to                     
==================================================================================================
input_1 (InputLayer)            (None, 11, 11, 1)    0                                            
__________________________________________________________________________________________________
reshape_1 (Reshape)             (None, 121, 1)       0           input_1[0][0]                    
__________________________________________________________________________________________________
conv1d_1 (Conv1D)               (None, 120, 4)       12          reshape_1[0][0]                  
__________________________________________________________________________________________________
max_pooling1d_1 (MaxPooling1D)  (None, 60, 4)        0           conv1d_1[0][0]                   
__________________________________________________________________________________________________
conv1d_2 (Conv1D)               (None, 60, 12)       204         max_pooling1d_1[0][0]            
__________________________________________________________________________________________________
max_pooling1d_2 (MaxPooling1D)  (None, 20, 12)       0           conv1d_2[0][0]                   
__________________________________________________________________________________________________
conv1d_3 (Conv1D)               (None, 20, 36)       1764        max_pooling1d_2[0][0]            
__________________________________________________________________________________________________
max_pooling1d_3 (MaxPooling1D)  (None, 5, 36)        0           conv1d_3[0][0]                   
__________________________________________________________________________________________________
conv1d_4 (Conv1D)               (None, 5, 108)       15660       max_pooling1d_3[0][0]            
__________________________________________________________________________________________________
max_pooling1d_4 (MaxPooling1D)  (None, 1, 108)       0           conv1d_4[0][0]                   
__________________________________________________________________________________________________
flatten_1 (Flatten)             (None, 108)          0           max_pooling1d_4[0][0]            
__________________________________________________________________________________________________
dense_1 (Dense)                 (None, 121)          13189       flatten_1[0][0]                  
__________________________________________________________________________________________________
flatten_2 (Flatten)             (None, 121)          0           input_1[0][0]                    
__________________________________________________________________________________________________
add_1 (Add)                     (None, 121)          0           dense_1[0][0]                    
                                                                 flatten_2[0][0]                  
==================================================================================================
Total params: 30,829
Trainable params: 30,829
Non-trainable params: 0
__________________________________________________________________________________________________
…
