…
00, 0], 'multihop.': [0, 3], 'phf.': [0, 0], 'spy.': [0, 0], 'warezclient.': [3000, 0], 'warezmaster.': [3000, 3], 'snmpgetattack.': [0, 3], 'named.': [0, 0], 'xlock.': [0, 0], 'xsnoop.': [0, 0], 'sendmail.': [0, 0], 'worm.': [0, 0], 'snmpguess.': [0, 3]}
Model Summary:
__________________________________________________________________________________________________
Layer (type)                    Output Shape         Param #     Connected to                     
==================================================================================================
input_1 (InputLayer)            (None, 11, 11, 1)    0                                            
__________________________________________________________________________________________________
conv2d_1 (Conv2D)               (None, 11, 11, 4)    20          input_1[0][0]                    
__________________________________________________________________________________________________
conv2d_2 (Conv2D)               (None, 11, 11, 4)    148         conv2d_1[0][0]                   
__________________________________________________________________________________________________
max_pooling2d_1 (MaxPooling2D)  (None, 5, 5, 4)      0           conv2d_2[0][0]                   
__________________________________________________________________________________________________
conv2d_3 (Conv2D)               (None, 5, 5, 16)     272         max_pooling2d_1[0][0]            
__________________________________________________________________________________________________
conv2d_4 (Conv2D)               (None, 5, 5, 16)     2320        conv2d_3[0][0]                   
__________________________________________________________________________________________________
max_pooling2d_2 (MaxPooling2D)  (None, 2, 2, 16)     0           conv2d_4[0][0]                   
__________________________________________________________________________________________________
conv2d_5 (Conv2D)               (None, 2, 2, 64)     4160        max_pooling2d_2[0][0]            
__________________________________________________________________________________________________
conv2d_6 (Conv2D)               (None, 2, 2, 64)     36928       conv2d_5[0][0]                   
__________________________________________________________________________________________________
max_pooling2d_3 (MaxPooling2D)  (None, 1, 1, 64)     0           conv2d_6[0][0]                   
__________________________________________________________________________________________________
conv2d_7 (Conv2D)               (None, 1, 1, 256)    65792       max_pooling2d_3[0][0]            
__________________________________________________________________________________________________
conv2d_8 (Conv2D)               (None, 1, 1, 256)    590080      conv2d_7[0][0]                   
__________________________________________________________________________________________________
flatten_1 (Flatten)             (None, 256)          0           conv2d_8[0][0]                   
__________________________________________________________________________________________________
dense_1 (Dense)                 (None, 121)          31097       flatten_1[0][0]                  
__________________________________________________________________________________________________
flatten_2 (Flatten)             (None, 121)          0           input_1[0][0]                    
__________________________________________________________________________________________________
add_1 (Add)                     (None, 121)          0           dense_1[0][0]                    
                                                                 flatten_2[0][0]                  
==================================================================================================
Total params: 730,817
Trainable params: 730,817
Non-trainable params: 0
__________________________________________________________________________________________________
…
