…
pgetattack.': {'train': 0, 'test': 2}, 'named.': {'train': 0, 'test': 1}, 'xlock.': {'train': 0, 'test': 1}, 'xsnoop.': {'train': 0, 'test': 1}, 'sendmail.': {'train': 0, 'test': 1}, 'worm.': {'train': 0, 'test': 1}, 'snmpguess.': {'train': 0, 'test': 3}}
Model Summary:
__________________________________________________________________________________________________
Layer (type)                    Output Shape         Param #     Connected to                     
==================================================================================================
input_6 (InputLayer)            (None, 11, 11, 1)    0                                            
__________________________________________________________________________________________________
conv2d_41 (Conv2D)              (None, 11, 11, 4)    40          input_6[0][0]                    
__________________________________________________________________________________________________
conv2d_42 (Conv2D)              (None, 11, 11, 4)    148         conv2d_41[0][0]                  
__________________________________________________________________________________________________
max_pooling2d_16 (MaxPooling2D) (None, 5, 5, 4)      0           conv2d_42[0][0]                  
__________________________________________________________________________________________________
conv2d_43 (Conv2D)              (None, 5, 5, 12)     444         max_pooling2d_16[0][0]           
__________________________________________________________________________________________________
conv2d_44 (Conv2D)              (None, 5, 5, 12)     1308        conv2d_43[0][0]                  
__________________________________________________________________________________________________
max_pooling2d_17 (MaxPooling2D) (None, 2, 2, 12)     0           conv2d_44[0][0]                  
__________________________________________________________________________________________________
conv2d_45 (Conv2D)              (None, 2, 2, 36)     3924        max_pooling2d_17[0][0]           
__________________________________________________________________________________________________
conv2d_46 (Conv2D)              (None, 2, 2, 36)     11700       conv2d_45[0][0]                  
__________________________________________________________________________________________________
max_pooling2d_18 (MaxPooling2D) (None, 1, 1, 36)     0           conv2d_46[0][0]                  
__________________________________________________________________________________________________
conv2d_47 (Conv2D)              (None, 1, 1, 121)    39325       max_pooling2d_18[0][0]           
__________________________________________________________________________________________________
conv2d_48 (Conv2D)              (None, 1, 1, 121)    131890      conv2d_47[0][0]                  
__________________________________________________________________________________________________
flatten_11 (Flatten)            (None, 121)          0           conv2d_48[0][0]                  
__________________________________________________________________________________________________
flatten_12 (Flatten)            (None, 121)          0           input_6[0][0]                    
__________________________________________________________________________________________________
add_6 (Add)                     (None, 121)          0           flatten_11[0][0]                 
                                                                 flatten_12[0][0]                 
==================================================================================================
Total params: 188,779
Trainable params: 188,779
Non-trainable params: 0
__________________________________________________________________________________________________
…
