…
00, 0], 'multihop.': [0, 3], 'phf.': [0, 0], 'spy.': [0, 0], 'warezclient.': [3000, 0], 'warezmaster.': [3000, 3], 'snmpgetattack.': [0, 3], 'named.': [0, 0], 'xlock.': [0, 0], 'xsnoop.': [0, 0], 'sendmail.': [0, 0], 'worm.': [0, 0], 'snmpguess.': [0, 3]}
Model Summary:
__________________________________________________________________________________________________
Layer (type)                    Output Shape         Param #     Connected to                     
==================================================================================================
input_2 (InputLayer)            (None, 11, 11, 1)    0                                            
__________________________________________________________________________________________________
conv2d_9 (Conv2D)               (None, 11, 11, 4)    20          input_2[0][0]                    
__________________________________________________________________________________________________
conv2d_10 (Conv2D)              (None, 11, 11, 4)    148         conv2d_9[0][0]                   
__________________________________________________________________________________________________
max_pooling2d_4 (MaxPooling2D)  (None, 5, 5, 4)      0           conv2d_10[0][0]                  
__________________________________________________________________________________________________
conv2d_11 (Conv2D)              (None, 5, 5, 16)     272         max_pooling2d_4[0][0]            
__________________________________________________________________________________________________
conv2d_12 (Conv2D)              (None, 5, 5, 16)     2320        conv2d_11[0][0]                  
__________________________________________________________________________________________________
max_pooling2d_5 (MaxPooling2D)  (None, 2, 2, 16)     0           conv2d_12[0][0]                  
__________________________________________________________________________________________________
conv2d_13 (Conv2D)              (None, 2, 2, 64)     4160        max_pooling2d_5[0][0]            
__________________________________________________________________________________________________
conv2d_14 (Conv2D)              (None, 2, 2, 64)     36928       conv2d_13[0][0]                  
__________________________________________________________________________________________________
max_pooling2d_6 (MaxPooling2D)  (None, 1, 1, 64)     0           conv2d_14[0][0]                  
__________________________________________________________________________________________________
conv2d_15 (Conv2D)              (None, 1, 1, 256)    65792       max_pooling2d_6[0][0]            
__________________________________________________________________________________________________
conv2d_16 (Conv2D)              (None, 1, 1, 256)    590080      conv2d_15[0][0]                  
__________________________________________________________________________________________________
flatten_3 (Flatten)             (None, 256)          0           conv2d_16[0][0]                  
__________________________________________________________________________________________________
dense_2 (Dense)                 (None, 121)          31097       flatten_3[0][0]                  
__________________________________________________________________________________________________
flatten_4 (Flatten)             (None, 121)          0           input_2[0][0]                    
__________________________________________________________________________________________________
add_2 (Add)                     (None, 121)          0           dense_2[0][0]                    
                                                                 flatten_4[0][0]                  
==================================================================================================
Total params: 730,817
Trainable params: 730,817
Non-trainable params: 0
__________________________________________________________________________________________________
…
