…
00, 0], 'multihop.': [0, 3], 'phf.': [0, 0], 'spy.': [0, 0], 'warezclient.': [3000, 0], 'warezmaster.': [3000, 3], 'snmpgetattack.': [0, 3], 'named.': [0, 0], 'xlock.': [0, 0], 'xsnoop.': [0, 0], 'sendmail.': [0, 0], 'worm.': [0, 0], 'snmpguess.': [0, 3]}
Model Summary:
__________________________________________________________________________________________________
Layer (type)                    Output Shape         Param #     Connected to                     
==================================================================================================
input_2 (InputLayer)            (None, 11, 11, 1)    0                                            
__________________________________________________________________________________________________
conv2d_9 (Conv2D)               (None, 11, 11, 4)    20          input_2[0][0]                    
__________________________________________________________________________________________________
conv2d_10 (Conv2D)              (None, 11, 11, 4)    148         conv2d_9[0][0]                   
__________________________________________________________________________________________________
max_pooling2d_4 (MaxPooling2D)  (None, 5, 5, 4)      0           conv2d_10[0][0]                  
__________________________________________________________________________________________________
conv2d_11 (Conv2D)              (None, 5, 5, 12)     204         max_pooling2d_4[0][0]            
__________________________________________________________________________________________________
conv2d_12 (Conv2D)              (None, 5, 5, 12)     1308        conv2d_11[0][0]                  
__________________________________________________________________________________________________
max_pooling2d_5 (MaxPooling2D)  (None, 2, 2, 12)     0           conv2d_12[0][0]                  
__________________________________________________________________________________________________
conv2d_13 (Conv2D)              (None, 2, 2, 36)     1764        max_pooling2d_5[0][0]            
__________________________________________________________________________________________________
conv2d_14 (Conv2D)              (None, 2, 2, 36)     11700       conv2d_13[0][0]                  
__________________________________________________________________________________________________
max_pooling2d_6 (MaxPooling2D)  (None, 1, 1, 36)     0           conv2d_14[0][0]                  
__________________________________________________________________________________________________
conv2d_15 (Conv2D)              (None, 1, 1, 108)    15660       max_pooling2d_6[0][0]            
__________________________________________________________________________________________________
conv2d_16 (Conv2D)              (None, 1, 1, 108)    105084      conv2d_15[0][0]                  
__________________________________________________________________________________________________
flatten_3 (Flatten)             (None, 108)          0           conv2d_16[0][0]                  
__________________________________________________________________________________________________
dense_4 (Dense)                 (None, 324)          35316       flatten_3[0][0]                  
__________________________________________________________________________________________________
dense_5 (Dense)                 (None, 216)          70200       dense_4[0][0]                    
__________________________________________________________________________________________________
dense_6 (Dense)                 (None, 121)          26257       dense_5[0][0]                    
__________________________________________________________________________________________________
flatten_4 (Flatten)             (None, 121)          0           input_2[0][0]                    
__________________________________________________________________________________________________
add_2 (Add)                     (None, 121)          0           dense_6[0][0]                    
                                                                 flatten_4[0][0]                  
==================================================================================================
Total params: 267,661
Trainable params: 267,661
Non-trainable params: 0
__________________________________________________________________________________________________
…
