…
pgetattack.': {'train': 0, 'test': 1}, 'named.': {'train': 0, 'test': 1}, 'xlock.': {'train': 0, 'test': 1}, 'xsnoop.': {'train': 0, 'test': 0}, 'sendmail.': {'train': 0, 'test': 1}, 'worm.': {'train': 0, 'test': 0}, 'snmpguess.': {'train': 0, 'test': 1}}
Model Summary:
__________________________________________________________________________________________________
Layer (type)                    Output Shape         Param #     Connected to                     
==================================================================================================
input_2 (InputLayer)            (None, 11, 11, 1)    0                                            
__________________________________________________________________________________________________
conv2d_9 (Conv2D)               (None, 11, 11, 4)    40          input_2[0][0]                    
__________________________________________________________________________________________________
conv2d_10 (Conv2D)              (None, 11, 11, 4)    148         conv2d_9[0][0]                   
__________________________________________________________________________________________________
max_pooling2d_4 (MaxPooling2D)  (None, 5, 5, 4)      0           conv2d_10[0][0]                  
__________________________________________________________________________________________________
conv2d_11 (Conv2D)              (None, 5, 5, 12)     444         max_pooling2d_4[0][0]            
__________________________________________________________________________________________________
conv2d_12 (Conv2D)              (None, 5, 5, 12)     1308        conv2d_11[0][0]                  
__________________________________________________________________________________________________
max_pooling2d_5 (MaxPooling2D)  (None, 2, 2, 12)     0           conv2d_12[0][0]                  
__________________________________________________________________________________________________
conv2d_13 (Conv2D)              (None, 2, 2, 36)     3924        max_pooling2d_5[0][0]            
__________________________________________________________________________________________________
conv2d_14 (Conv2D)              (None, 2, 2, 36)     11700       conv2d_13[0][0]                  
__________________________________________________________________________________________________
max_pooling2d_6 (MaxPooling2D)  (None, 1, 1, 36)     0           conv2d_14[0][0]                  
__________________________________________________________________________________________________
conv2d_15 (Conv2D)              (None, 1, 1, 121)    39325       max_pooling2d_6[0][0]            
__________________________________________________________________________________________________
conv2d_16 (Conv2D)              (None, 1, 1, 121)    131890      conv2d_15[0][0]                  
__________________________________________________________________________________________________
flatten_3 (Flatten)             (None, 121)          0           conv2d_16[0][0]                  
__________________________________________________________________________________________________
flatten_4 (Flatten)             (None, 121)          0           input_2[0][0]                    
__________________________________________________________________________________________________
add_2 (Add)                     (None, 121)          0           flatten_3[0][0]                  
                                                                 flatten_4[0][0]                  
==================================================================================================
Total params: 188,779
Trainable params: 188,779
Non-trainable params: 0
__________________________________________________________________________________________________
…
