…
00, 0], 'multihop.': [0, 1], 'phf.': [0, 0], 'spy.': [0, 0], 'warezclient.': [3000, 0], 'warezmaster.': [3000, 2], 'snmpgetattack.': [0, 2], 'named.': [0, 1], 'xlock.': [0, 0], 'xsnoop.': [0, 0], 'sendmail.': [0, 0], 'worm.': [0, 0], 'snmpguess.': [0, 2]}
Model Summary:
__________________________________________________________________________________________________
Layer (type)                    Output Shape         Param #     Connected to                     
==================================================================================================
input_1 (InputLayer)            (None, 11, 11, 1)    0                                            
__________________________________________________________________________________________________
conv2d_1 (Conv2D)               (None, 11, 11, 1)    10          input_1[0][0]                    
__________________________________________________________________________________________________
conv2d_2 (Conv2D)               (None, 11, 11, 4)    40          conv2d_1[0][0]                   
__________________________________________________________________________________________________
max_pooling2d_1 (MaxPooling2D)  (None, 5, 5, 4)      0           conv2d_2[0][0]                   
__________________________________________________________________________________________________
conv2d_3 (Conv2D)               (None, 5, 5, 4)      148         max_pooling2d_1[0][0]            
__________________________________________________________________________________________________
conv2d_4 (Conv2D)               (None, 5, 5, 12)     444         conv2d_3[0][0]                   
__________________________________________________________________________________________________
max_pooling2d_2 (MaxPooling2D)  (None, 2, 2, 12)     0           conv2d_4[0][0]                   
__________________________________________________________________________________________________
global_average_pooling2d_1 (Glo (None, 12)           0           max_pooling2d_2[0][0]            
__________________________________________________________________________________________________
dense_1 (Dense)                 (None, 4)            52          global_average_pooling2d_1[0][0] 
__________________________________________________________________________________________________
dense_2 (Dense)                 (None, 12)           60          dense_1[0][0]                    
__________________________________________________________________________________________________
multiply_1 (Multiply)           (None, 2, 2, 12)     0           max_pooling2d_2[0][0]            
                                                                 dense_2[0][0]                    
__________________________________________________________________________________________________
conv2d_5 (Conv2D)               (None, 2, 2, 12)     1308        multiply_1[0][0]                 
__________________________________________________________________________________________________
conv2d_6 (Conv2D)               (None, 2, 2, 36)     3924        conv2d_5[0][0]                   
__________________________________________________________________________________________________
max_pooling2d_3 (MaxPooling2D)  (None, 1, 1, 36)     0           conv2d_6[0][0]                   
__________________________________________________________________________________________________
global_average_pooling2d_2 (Glo (None, 36)           0           max_pooling2d_3[0][0]            
__________________________________________________________________________________________________
dense_3 (Dense)                 (None, 12)           444         global_average_pooling2d_2[0][0] 
__________________________________________________________________________________________________
dense_4 (Dense)                 (None, 36)           468         dense_3[0][0]                    
__________________________________________________________________________________________________
multiply_2 (Multiply)           (None, 1, 1, 36)     0           max_pooling2d_3[0][0]            
                                                                 dense_4[0][0]                    
__________________________________________________________________________________________________
conv2d_7 (Conv2D)               (None, 1, 1, 36)     11700       multiply_2[0][0]                 
__________________________________________________________________________________________________
conv2d_8 (Conv2D)               (None, 1, 1, 108)    35100       conv2d_7[0][0]                   
__________________________________________________________________________________________________
flatten_1 (Flatten)             (None, 108)          0           conv2d_8[0][0]                   
__________________________________________________________________________________________________
dense_5 (Dense)                 (None, 216)          23544       flatten_1[0][0]                  
__________________________________________________________________________________________________
dense_6 (Dense)                 (None, 121)          26257       dense_5[0][0]                    
__________________________________________________________________________________________________
dense_7 (Dense)                 (None, 121)          14762       dense_6[0][0]                    
__________________________________________________________________________________________________
flatten_2 (Flatten)             (None, 121)          0           input_1[0][0]                    
__________________________________________________________________________________________________
add_1 (Add)                     (None, 121)          0           dense_7[0][0]                    
                                                                 flatten_2[0][0]                  
__________________________________________________________________________________________________
flatten_3 (Flatten)             (None, 121)          0           input_1[0][0]                    
__________________________________________________________________________________________________
add_2 (Add)                     (None, 121)          0           add_1[0][0]                      
                                                                 flatten_3[0][0]                  
==================================================================================================
Total params: 118,261
Trainable params: 118,261
Non-trainable params: 0
__________________________________________________________________________________________________
…
