…
pgetattack.': {'train': 0, 'test': 2}, 'named.': {'train': 0, 'test': 1}, 'xlock.': {'train': 0, 'test': 1}, 'xsnoop.': {'train': 0, 'test': 1}, 'sendmail.': {'train': 0, 'test': 1}, 'worm.': {'train': 0, 'test': 1}, 'snmpguess.': {'train': 0, 'test': 3}}
Model Summary:
__________________________________________________________________________________________________
Layer (type)                    Output Shape         Param #     Connected to                     
==================================================================================================
input_4 (InputLayer)            (None, 11, 11, 1)    0                                            
__________________________________________________________________________________________________
conv2d_25 (Conv2D)              (None, 11, 11, 4)    40          input_4[0][0]                    
__________________________________________________________________________________________________
conv2d_26 (Conv2D)              (None, 11, 11, 4)    148         conv2d_25[0][0]                  
__________________________________________________________________________________________________
max_pooling2d_10 (MaxPooling2D) (None, 5, 5, 4)      0           conv2d_26[0][0]                  
__________________________________________________________________________________________________
conv2d_27 (Conv2D)              (None, 5, 5, 12)     444         max_pooling2d_10[0][0]           
__________________________________________________________________________________________________
conv2d_28 (Conv2D)              (None, 5, 5, 12)     1308        conv2d_27[0][0]                  
__________________________________________________________________________________________________
max_pooling2d_11 (MaxPooling2D) (None, 2, 2, 12)     0           conv2d_28[0][0]                  
__________________________________________________________________________________________________
conv2d_29 (Conv2D)              (None, 2, 2, 36)     3924        max_pooling2d_11[0][0]           
__________________________________________________________________________________________________
conv2d_30 (Conv2D)              (None, 2, 2, 36)     11700       conv2d_29[0][0]                  
__________________________________________________________________________________________________
max_pooling2d_12 (MaxPooling2D) (None, 1, 1, 36)     0           conv2d_30[0][0]                  
__________________________________________________________________________________________________
conv2d_31 (Conv2D)              (None, 1, 1, 121)    39325       max_pooling2d_12[0][0]           
__________________________________________________________________________________________________
conv2d_32 (Conv2D)              (None, 1, 1, 121)    131890      conv2d_31[0][0]                  
__________________________________________________________________________________________________
flatten_7 (Flatten)             (None, 121)          0           conv2d_32[0][0]                  
__________________________________________________________________________________________________
flatten_8 (Flatten)             (None, 121)          0           input_4[0][0]                    
__________________________________________________________________________________________________
add_4 (Add)                     (None, 121)          0           flatten_7[0][0]                  
                                                                 flatten_8[0][0]                  
==================================================================================================
Total params: 188,779
Trainable params: 188,779
Non-trainable params: 0
__________________________________________________________________________________________________
…
