…
pgetattack.': {'train': 0, 'test': 3}, 'named.': {'train': 0, 'test': 2}, 'xlock.': {'train': 0, 'test': 1}, 'xsnoop.': {'train': 0, 'test': 1}, 'sendmail.': {'train': 0, 'test': 2}, 'worm.': {'train': 0, 'test': 1}, 'snmpguess.': {'train': 0, 'test': 4}}
Model Summary:
__________________________________________________________________________________________________
Layer (type)                    Output Shape         Param #     Connected to                     
==================================================================================================
input_3 (InputLayer)            (None, 11, 11, 1)    0                                            
__________________________________________________________________________________________________
conv2d_17 (Conv2D)              (None, 11, 11, 4)    40          input_3[0][0]                    
__________________________________________________________________________________________________
conv2d_18 (Conv2D)              (None, 11, 11, 4)    148         conv2d_17[0][0]                  
__________________________________________________________________________________________________
max_pooling2d_7 (MaxPooling2D)  (None, 5, 5, 4)      0           conv2d_18[0][0]                  
__________________________________________________________________________________________________
conv2d_19 (Conv2D)              (None, 5, 5, 12)     444         max_pooling2d_7[0][0]            
__________________________________________________________________________________________________
conv2d_20 (Conv2D)              (None, 5, 5, 12)     1308        conv2d_19[0][0]                  
__________________________________________________________________________________________________
max_pooling2d_8 (MaxPooling2D)  (None, 2, 2, 12)     0           conv2d_20[0][0]                  
__________________________________________________________________________________________________
conv2d_21 (Conv2D)              (None, 2, 2, 36)     3924        max_pooling2d_8[0][0]            
__________________________________________________________________________________________________
conv2d_22 (Conv2D)              (None, 2, 2, 36)     11700       conv2d_21[0][0]                  
__________________________________________________________________________________________________
max_pooling2d_9 (MaxPooling2D)  (None, 1, 1, 36)     0           conv2d_22[0][0]                  
__________________________________________________________________________________________________
conv2d_23 (Conv2D)              (None, 1, 1, 121)    39325       max_pooling2d_9[0][0]            
__________________________________________________________________________________________________
conv2d_24 (Conv2D)              (None, 1, 1, 121)    131890      conv2d_23[0][0]                  
__________________________________________________________________________________________________
flatten_5 (Flatten)             (None, 121)          0           conv2d_24[0][0]                  
__________________________________________________________________________________________________
flatten_6 (Flatten)             (None, 121)          0           input_3[0][0]                    
__________________________________________________________________________________________________
add_3 (Add)                     (None, 121)          0           flatten_5[0][0]                  
                                                                 flatten_6[0][0]                  
==================================================================================================
Total params: 188,779
Trainable params: 188,779
Non-trainable params: 0
__________________________________________________________________________________________________
…
