…
pgetattack.': {'train': 0, 'test': 3}, 'named.': {'train': 0, 'test': 2}, 'xlock.': {'train': 0, 'test': 1}, 'xsnoop.': {'train': 0, 'test': 1}, 'sendmail.': {'train': 0, 'test': 2}, 'worm.': {'train': 0, 'test': 1}, 'snmpguess.': {'train': 0, 'test': 4}}
Model Summary:
__________________________________________________________________________________________________
Layer (type)                    Output Shape         Param #     Connected to                     
==================================================================================================
input_1 (InputLayer)            (None, 11, 11, 1)    0                                            
__________________________________________________________________________________________________
conv2d_1 (Conv2D)               (None, 11, 11, 4)    40          input_1[0][0]                    
__________________________________________________________________________________________________
conv2d_2 (Conv2D)               (None, 11, 11, 4)    148         conv2d_1[0][0]                   
__________________________________________________________________________________________________
max_pooling2d_1 (MaxPooling2D)  (None, 5, 5, 4)      0           conv2d_2[0][0]                   
__________________________________________________________________________________________________
conv2d_3 (Conv2D)               (None, 5, 5, 12)     444         max_pooling2d_1[0][0]            
__________________________________________________________________________________________________
conv2d_4 (Conv2D)               (None, 5, 5, 12)     1308        conv2d_3[0][0]                   
__________________________________________________________________________________________________
max_pooling2d_2 (MaxPooling2D)  (None, 2, 2, 12)     0           conv2d_4[0][0]                   
__________________________________________________________________________________________________
conv2d_5 (Conv2D)               (None, 2, 2, 36)     3924        max_pooling2d_2[0][0]            
__________________________________________________________________________________________________
conv2d_6 (Conv2D)               (None, 2, 2, 36)     11700       conv2d_5[0][0]                   
__________________________________________________________________________________________________
max_pooling2d_3 (MaxPooling2D)  (None, 1, 1, 36)     0           conv2d_6[0][0]                   
__________________________________________________________________________________________________
conv2d_7 (Conv2D)               (None, 1, 1, 121)    39325       max_pooling2d_3[0][0]            
__________________________________________________________________________________________________
conv2d_8 (Conv2D)               (None, 1, 1, 121)    131890      conv2d_7[0][0]                   
__________________________________________________________________________________________________
flatten_1 (Flatten)             (None, 121)          0           conv2d_8[0][0]                   
__________________________________________________________________________________________________
flatten_2 (Flatten)             (None, 121)          0           input_1[0][0]                    
__________________________________________________________________________________________________
add_1 (Add)                     (None, 121)          0           flatten_1[0][0]                  
                                                                 flatten_2[0][0]                  
==================================================================================================
Total params: 188,779
Trainable params: 188,779
Non-trainable params: 0
__________________________________________________________________________________________________
…
